…
영향 무\n            if nx < 0 or nx >= n or ny < 0 or ny >= m or ( nx == 0 and ny == 0 ):\n                continue\n            # 벽인 경우 무시\n            if graph[nx][ny] == 0:\n                continue\n            \n            # 해당 노드를 처음 방문한 경우에만 최단 거리 기록\n            if graph[nx][ny] == 1:\n                graph[nx][ny] = graph[x][y] + 1\n                queue.append((nx, ny))\n                \n    # 가장 오른쪽 아래까지의 최단 거리 반환\n    return graph[n-1][m-1]   # n, m 행렬의 끝 인덱스는 각각의 크기 - 1\n\nprint( bfs(0, 0) )\n# 5\nprint(graph)\n# [[1, 2, 0], \n#  [0, 3, 0], '\n#  [0, 4, 5]]\n\n미로 탈출 실행 추적\npopleft(0,0) -> 상 -> 지도 밖 무시\n             -> 하 -> 0 만나 무시\n             -> 좌 -> 지도 밖 무시\n             -> 우(0,1) -> graph[0][1] = 2 -> [(0, 1)]\npopleft(0,1) -> 상 -> 지도 밖 무시\n             -> 하(1,1) -> graph[1][1] = 2 -> [(1,1)]\n             -> 좌(0,0) -> graph[0][0] = 2 -> [(1,1), (0,0)]\n             -> 우 -> 0 만나 무시\npopleft(1,1) -> 상 -> 2 만나 무시\n             -> 하(2,1) -> graph[2][1] = 3 -> [(0, 0), (2,1)]\n             -> 좌 -> 0 만나 무시\n             -> 우 -> 0 만나 무시\npopleft(0,0) -> 상 -> 지도 밖 무시\n             -> 하 -> 0 만나 무시\n             -> 좌 -> 지도 밖 무시\n             -> 우 -> 2 만나 무시\npopleft(2,1) -> 상 -> 2 만나 무시\n             -> 하 -> 지도 밖 무시\n             -> 좌 -> 0 만나 무시\n             -> 우 -> graph[2][2] = 4 -> [(2,2)]\npopleft(2,2) -> 상 -> 0 만나 무시\n             -> 하 -> 지도 밖 무시\n             -> 좌 -> 3 만나 무시\n             -> 우 -> 지도 밖 무시\n이동 가능한 모든 셀, 즉 값이 1인 셀을 방문하여 +1로 바꾼다. 그러면, 이미 방문한 셀을 재방문하지 않게 된다."
  },
  {
    "objectID": "books/This_is_coding_test/08dynamicProgramming.html",
    "href": "books/This_is_coding_test/08dynamicProgramming.html",
    "title": "08장 Dynamic Programming(동적 계획법) p208",
    "section": "",
    "tex
…
n    \n    # 현재 수에서 1을 빼는 경우\n    # 자신보다 1 작은 수의 계산횟수 + 자신을 호출한 횟수(1) 더하기\n    d[i] = d[i - 1] + 1\n    \n    \n    # 나누어 떨어지는 수가 없으면 자신의 인덱스를 그대로 추가하고,\n    # 2로 나누어 떨어지면 몫에 해당하는 값에 횟수를 가리키는 +1 \n    \n    # 현재 수가 2로 나누어 떨어지는 경우\n    if i % 2 == 0:\n        d[i] = min(d[i], d[i // 2] + 1)\n\n    # 현재 수가 3으로 나누어 떨어지는 경우\n    if i % 3 == 0:\n        d[i] = min(d[i], d[i // 3] + 1)\n    \n    # 현재 수가 5로 나누어 떨어지는 경우\n    if i % 5 == 0:\n        d[i] = min(d[i], d[i // 5] + 1)\n        \nprint(d[x])\n#    2\nd 변수의 각 인덱스에 1로 만드는 최소한의 횟수가 저장됨\nd1 = 0\nd2 : d1 + 1 -> 1 -> 2로 나누어 떨어짐 min(d2, d1+1) -> (1, 1) -> 1\nd3 : d2 + 1 -> 2 -> 3으로 나누어 떨어짐 min(d3, d1 + 1) -> (2, 1) -> 1\nd4 : d3 + 1 -> 2 -> 2로 나누어 떨어짐 min(d4, d2 + 1) -> (2, 2) -> 2\nd5 : d4 + 1 -> 3 -> 5로 나누어 떨어짐 min(d5, d1 + 1) -> (3, 1) -> 1\nd6 : d5 + 1 -> 2 -> 2로 나누어 떨어짐 min(d6, d3 + 1) -> (2, 2) -> 2\n                    3으로 나누어 떨어짐 min(d6, d2 + 1) -> (2, 2) -> 2\nd7 : d6 + 1 -> 3\nd8 : d7 + 1 -> 4 -> 2로 나누어 떨어짐 min(d8, d4 + 1) -> (4, 3) -> 3\nd9 : d8 + 1 -> 4 -> 3으로 나누어 떨어짐 min(d9, d3 + 1) -> (4, 2) -> 2"
  },
  {
    "objectID": "books/This_is_coding_test/08dynamicProgramming.html#개미-전사-p220",
    "href": "books/This_is_coding_test/08dynamicProgramming.html#개미-전사-p220",
    "title": "08장 Dynamic Programming(동적 계획법) p208",
    "section": "개미 전사 p220",
    "text": "개미 전사 p220\nd <- 이전까지 숫자 합계 중 가장 큰 합계 저장\n\nd[0] <- 변수의 초기값\nd[1] <- d[0], d[1] 중 큰 값\nd[n] <- d[n-1]과 d[n-2]+d[n] 중 큰 값 저장 왜냐면, -1
…
6, test_acc: 0.991\nepoch: 18, loss: 0.038, acc: 0.99, test_loss: 0.024, test_acc: 0.993\nepoch: 19, loss: 0.036, acc: 0.99, test_loss: 0.028, test_acc: 0.990\nepoch: 20, loss: 0.037, acc: 0.99, test_loss: 0.024, test_acc: 0.991\n\n\n\n\n9.2 가중치 수 계산\ntorchsummary.summary\n\n# !pip install torchsummary\nfrom torchsummary import summary\n\nsummary(model, (1, 28, 28))\n\n----------------------------------------------------------------\n        Layer (type)               Output Shape         Param #\n================================================================\n            Conv2d-1           [-1, 64, 26, 26]             640\n              ReLU-2           [-1, 64, 26, 26]               0\n         MaxPool2d-3           [-1, 64, 13, 13]               0\n           Dropout-4           [-1, 64, 13, 13]               0\n            Conv2d-5          [-1, 128, 11, 11]          73,856\n              ReLU-6          [-1, 128, 11, 11]               0\n         MaxPool2d-7            [-1, 128, 5, 5]               0\n           Dropout-8            [-1, 128, 5, 5]               0\n            Linear-9                  [-1, 128]         409,728\n           Linear-10                   [-1, 10]           1,290\n================================================================\nTotal params: 485,514\nTrainable params: 485,514\nNon-trainable params: 0\n----------------------------------------------------------------\nInput size (MB): 0.00\nForward/backward pass size (MB): 1.11\nParams size (MB): 1.85\nEstimated Total Size (MB): 2.97\n----------------------------------------------------------------\n\n\n\n\n9.3 shape 계산\n\nConv2d 후 특성 맵 shape 계산\n\n\\(\\text{특성맵의 행 크기} = \\frac{\\text{입력 데이터의 행 크기} - \\text{필터의 행 크기}}{stride} + 1\\)\n\\(\\text{특성맵의 열 크기} = \\frac{\\text{입력 데이터의 열 크기} - \\text{필터의 열 크기}}{stride} + 1\\)\n\n입력(1, 28, 28) 채널 1개, 높이 28, 넓이 28, 필터(64개, 3, 3)\nstride는 조건이 없으니 1로 가정\n(28 - 3) + 1 => 26\n따라서 (64, 26, 26) 26x26 크기의 특성 맵이 64개\n\n\nReLU 활성화 함수에서 학습되는 가중치는 없고 데이터 형태에도 영향을 주지 않는다.\nPooling 2x2 -> 맵의 크기가 절반으로 줄어듬. 채널 영향은 없음\n\n(64, 26, 26) -> (64, 13, 13)\n\n두 번째 은닉층\n\n\n입력되는 채널은 64개 -> 테이터의 채널 수 만큼 필터의 채널 수를 늘림\n합성곱층에 입력되는 데이터 채널 수 에 관계없이 필터 1개당 1개의 채널을 가진 특성 맵을 출력한다.\n두 번째 합성곱층의 필터 크기는 64x3x3 = 576 + 1개 편향 => 필터 1개당 가중치 577개\n필터 수 128개로 지정 => 총 파라미터 개수는 577 * 128 = 73,856\n생성한 맵은 (128, 11, 11)\n\n\n풀링 (11, 11) -> (5.5, 5.5) -> 소수점 버림 -> (128, 5, 5)\n세 번째 은닉층은 128개 노드를 가진 전결합층 -> 1차원 배열 입력 : 128 * 5 * 5 = 3,200\n\n\n입력 데이터는 모든 노드와 연결되므로 입력 3200 * 노드 128 + 편향 128 = 409,728\n\n\n출력층\n\n\n전결합층은 클래스 개수와 같은 10개 노드\n입력 128 * 노드 10 + 편향 10 = 1290\n\n\n\n9.4 stride\n유의할 점은 합성곱층에 비해 전결합층에서 가중치가 많아지기 쉽다는 것이다. 전결합층은 입력 데이터가 모든 노드와 연결되기 때문에 입력 데이터의 크기가 조금만 커져도 가중치 수가 급격히 늘어난다. 따라서 전결합층을 사용하기 전에 특성 맵의 크기를 줄여야 하는데, 가중치를 줄이는 방법으로 풀링 외에 스트라이드(stride)가 있다.\n\n\n9.5 제로 패딩(zero padding)\n풀링층을 사용하지 않고 스트라이드도 기본값을 두더라도 합성곱층을 거치면서 특성 맵의 크기는 조금씩 줄어든다. 특성 맵의 크기가 계속 작아지면 합성곱층을 많이 배치하지 못하게 된다. 이럴 때는 테두리에 값이 0인 픽셀을 추가해서 원본 이미지의 크기를 키운 후 특성 맵을 도출한다."
…
